tiny_bev_halo_qat.pt (torch, 488407 bytes, 21 tensors)

e1.0.weight f4 [16, 3, 3, 3]
0.055461932 0.12978548 0.27851546 -0.032484494 -0.086490355 0.14860179 0.18121536 -0.026703598
0.1819976 -0.10969626 -0.14588004 0.09813981 -0.10302236 -0.06098087 -0.024711153 0.055808846
0.1899969 0.14799328 0.011673357 0.16735464 0.116697155 0.101410545 0.03367526 0.18283416
-0.15083578 0.18210177 -0.0400826 -0.01553429 -0.00417893 -0.25129244 0.087832205 0.06360323
-0.24945563 0.13831389 0.10027794 -0.0950192 0.14598389 -0.1124178 0.23778975 -0.1117031
0.32936984 0.05898835 -0.08409353 0.06750045 -0.06089827 0.15326504 0.16935572 -0.27205598
0.021488544 -0.020701379 -0.20893778 0.06626304 0.17581192 -0.24405691 -0.19866455 0.22809634
-0.24903844 0.054484554 0.18612272 -0.29477924 0.10294519 -0.14718953 -0.19570716 -0.1887293
-0.235738 -0.048708998 0.11393246 0.1454375 0.019403718 0.1722697 -0.12025955 -0.060806926
0.040323205 -0.14747621 -0.030961204 0.05222453 0.0490958 0.13891652 -0.063304454 0.11328214
-0.029367445 0.1100202 0.17964335 0.09612567 -0.09705424 0.14560384 0.04401249 -0.016992575
-0.11711373 -0.09779685 0.26939076 0.34433398 0.13010806 -0.064284764 0.2008818 -0.08938246
0.021874482 -0.056478407 -0.09926427 0.18460695 0.003360644 -0.114511594 -0.033664152 -0.15065612
0.00878943 -0.1257237 0.0551087 -0.096124694 0.049089637 -0.08025843 -0.091948316 -0.09657019
0.045072906 0.115297444 0.05311268 0.13643101 -0.19306153 0.08637403 0.16073938 0.07386907
0.14096595 0.08239531 0.1705277 0.01187189 0.21761839 0.29452494 -0.10470051 0.115032546
0.09784671 -0.12505136 0.082085595 -0.16762075 -0.0035530364 -0.012799594 -0.017359555 -0.49616835
-0.063573696 -0.20527995 -0.3094318 -0.4989922 -0.5013389 -0.23055351 -0.2712065 0.11220633
-0.50116247 0.3657318 0.25767016 -0.25621036 -0.5065595 -0.50151896 -0.49376157 -0.35817942
0.36617407 -0.2643314 -0.40446818 0.11455148 -0.112800375 -0.12574852 -0.2607766 -0.15285839
-0.2476042 -0.039584756 0.18821424 -0.10532942 0.2059595 0.21171142 -0.12514095 -0.035275426
0.089170195 0.019452937 0.09209879 -0.19985995 -0.15116875 -0.15341854 -0.20051233 -0.19683912
0.0023214624 0.19066936 0.018626967 -0.22182538 0.065604515 0.12862472 -0.23718567 0.04596026
0.14548185 -0.11329767 -0.07887666 -0.08136206 0.14613107 0.058227822 -0.0030361533 -0.22578228
0.08111427 -0.097304374 -0.11295686 0.08304427 -0.16733734 -0.12408594 0.43490726 -0.16118936
-0.3929192 0.14430872 0.07054454 -0.29126137 0.4051238 -0.20797244 -0.20635328 0.13078956
-0.02822723 -0.13729659 0.16374658 -0.045162246 0.09697478 0.010859991 0.0012859113 -0.0823789
-0.50159705 -0.50453657 -0.27420577 -0.40953043 -0.10389178 -0.049860824 0.3388565 -0.16987051
-0.35690865 -0.50217706 0.10044646 -0.13699147 -0.50106764 -0.37748 0.27376142 0.48449025
-0.2009008 0.2859169 0.052796658 -0.032425206 -0.10177633 -0.24190761 -0.44745243 -0.50017637
-0.5051801 -0.50186586 -0.36420074 -0.084773526 -0.03301599 0.06861789 0.05724833 -0.08692373
-0.10237513 0.08251754 0.009071976 0.1546293 -0.19057783 -0.04789358 0.057426672 -0.05266054
00000000: 0d2c 633d 7ce6 043e 9499 8e3e 760e 05bd
00000010: db21 b1bd 112b 183e 8590 393e 81c1 dabc
00000020: 945d 3a3e 6fa8 e0bd 9461 15be 86fd c83d
00000030: 63fd d2bd 14c7 79bd 0b6f cabc d197 643d
00000040: 8c8e 423e 8d8b 173e 9c41 3f3c 045f 2b3e
00000050: ebfe ee3d 55b0 cf3d 12ef 093d e138 3b3e
00000060: b274 1abe e378 3a3e a72d 24bd 8983 7ebc
00000070: 68ef 88bb 67a9 80be 5fe1 b33d 6942 823d
00000080: 4c71 7fbe 28a2 0d3e 855e cd3d 6d99 c2bd
00000090: cd7c 153e 4e3b e6bd 287f 733e 98c4 e4bd
000000a0: 2aa3 a83e c59d 713d 3b39 acbd ad3d 8a3d
000000b0: 7770 79bd 83f1 1c3e 966b 2d3e ec4a 8bbe
000000c0: be08 b03c f095 a9bc c9f3 55be ebb4 873d
000000d0: 0a08 343e 0eea 79be b86e 4bbe 1692 693e
000000e0: ef03 7fbe 322b 5f3d f496 3e3e 4eed 96be
000000f0: eed4 d23d dab8 16be 7567 48be 4142 41be
00000100: 4d65 71be 1683 47bd 6c55 e93d 91ed 143e
00000110: 8cf4 9e3c 7867 303e a44a f6bd af10 79bd
00000120: f229 253d 0104 17be 5aa2 fdbc 64e9 553d
00000130: ad18 493d 2240 0e3e c4a5 81bd 7700 e83d
00000140: ff93 f0bc 4552 e13d 6df4 373e 89dd c43d
00000150: 60c4 c6bd 2c19 153e 7146 343d 0334 8bbc
00000160: 53d9 efbd b749 c8bd 96ed 893e 8b4c b03e
00000170: 0c3b 053e bba7 83bd f5b3 4d3e 270e b7bd
00000180: 1d32 b33c e755 67bd 114b cbbd 9b09 3d3e
00000190: 403e 5c3b 0e85 eabd 6ce3 09bd 9945 1abe
000001a0: 8b01 103c b7bd 00be a9b9 613d 06dd c4bd
000001b0: 3712 493d 885e a4bd 664f bcbd 97c6 c5bd
000001c0: 5e9e 383d 1121 ec3d ae8c 593d 92b4 0b3e
000001d0: ecb1 45be dee4 b03d dd98 243e ab48 973d
000001e0: 6159 103e dfbe a83d d09e 2e3e 5182 423c
000001f0: 5bd7 5e3e f9cb 963e 396d d6bd 2f96 eb3d
00000200: db63 c83d 770d 00be 7e1c a83d c6a4 2bbe
00000210: 0fda 68bb 63b5 51bc a035 8ebc c709 febe
00000220: ed32 82bd e834 52be d86d 9ebe e87b ffbe
00000230: bf57 00bf 3816 6cbe 94db 8abe 6fcc e53d
00000240: 2f4c 00bf 3341 bb3e 58ed 833e 012e 83be
00000250: e2ad 01bf 8c63 00bf 51ce fcbe 4b63 b7be
00000260: 2b7b bb3e 7256 87be 7416 cfbe f799 ea3d
00000270: e203 e7bd 38c4 00be 8384 85be e986 1cbe
00000280: f58b 7dbe a023 22bd 3cbb 403e f3b6 d7bd
00000290: 0ce7 523e e1ca 583e f324 00be f77c 10bd
000002a0: dd9e b63d c45b 9f3c 4a9e bc3d 16a8 4cbe
000002b0: fbcb 1abe c019 1dbe 1b53 4dbe 3290 49be
000002c0: ad23 183b d43e 433e 9597 983c 3126 63be
000002d0: a95b 863d 33b6 033e cde0 72be d340 3c3d
000002e0: 32f9 143e 9c08 e8bd 168a a1bd 27a1 a6bd
000002f0: 62a3 153e 4c80 6e3d 33fa 46bb 7833 67be
00000300: 3d1f a63d 8447 c7bd ed55 e7bd 1d13 aa3d
00000310: 7b5a 2bbe c520 febd 2aac de3e d30e 25be
00000320: b52c c9be aac5 133e a879 903d 3620 95be
00000330: 636c cf3e baf6 54be 464e 53be b3ed 053e
00000340: cb3c e7bc 7a97 0cbe 2fad 273e 0cfc 38bd
00000350: b79a c63d 1bee 313c 068c a83a 45b6 a8bd
00000360: aa68 00bf 4f29 01bf b364 8cbe f9ad d1be
00000370: 37c5 d4bd dd3a 4cbd 997e ad3e 89f2 2dbe
00000380: bbbc b6be ad8e 00bf e0b6 cd3d 7e47 0cbe
00000390: f845 00bf 0f45 c1be 752a 8c3e 1b0f f83e
000003a0: f0b8 4dbe b363 923e 4f41 583d 4bd0 04bd
000003b0: 1c70 d0bd a1b6 77be 7c18 e5be 8f0b 00bf
000003c0: 7c53 01bf 487a 00bf 8578 babe be9d adbd
000003d0: c63b 07bd 8987 8c3d 3a7d 6a3d 1205 b2bd
000003e0: 0daa d1bd f5fe a83d a0a2 143c 2557 1e3e
000003f0: d626 43be 0f2c 44bd 3b38 6b3d 94b2 57bd

e1.0.bias f4 [16]
0.026864469 -0.16052087 -0.007502165 -0.19874874 -0.00087370333 0.15369529 0.08213263 -0.0020402807
0.10922213 -0.14340232 -0.046802502 0.04656906 -0.016700845 0.16122843 0.000122039746 -0.21997598
00000000: e012 dc3c 955f 24be b9d4 f5bb ca84 4bbe
00000010: 3d09 65ba 4c62 1d3e 2735 a83d 3bb6 05bb
00000020: daaf df3d 0fd8 12be fbb3 3fbd 33bf 3e3d
00000030: 36d0 88bc 1119 253e 97ef ff38 6241 61be

e1.2.weight f4 [16, 16, 3, 3]
-0.053981435 -0.04135106 0.087627165 -0.043497216 0.05308503 -0.03852778 -0.12163304 -0.12660085
-0.057927568 0.055635862 0.14079271 0.2667228 -0.16720381 0.11990656 0.14480838 -0.025736649
0.016241146 0.09966006 0.09158119 0.1198374 0.1650442 0.0073803263 0.16095865 0.027015751
0.07670947 -0.18589343 0.018310033 0.05213719 0.15567282 0.10373682 0.06410693 0.0038057014
0.11383706 0.019804033 0.15705204 0.2614462 -0.013836905 0.014423666 0.030999161 -0.019959452
-0.056471184 -0.03996727 -0.06465397 -0.11253461 -0.1217548 0.13001381 -0.069531135 0.06285483
0.008386438 -0.037507355 0.031073708 0.105931714 0.13483444 0.058443382 -0.10341476 0.009724266
-0.02672664 -0.050159473 -0.023701686 -0.038086437 -0.037658963 -0.035189856 -0.07419511 0.19915387
0.29063195 0.22838947 0.04393915 0.072843306 0.08147516 -0.07523953 -0.107898526 0.05048061
0.032473218 0.034182567 0.049300477 0.10858362 -0.02679952 -0.08127261 0.050575294 0.09831741
0.014361145 0.15870818 0.30243665 0.15036234 -0.070077665 -0.07868736 -0.054890897 -0.25040185
-0.3263374 -0.186268 0.14267747 0.1976957 0.092827074 -0.051499076 0.015549478 0.034016825
0.0043853153 0.17266947 -0.06557959 -0.10696046 0.16905871 -0.031201703 0.10478692 -0.025231425
0.10691021 -0.053787105 -0.013886833 -0.042953003 0.068527184 0.14152816 0.0842908 7.244971e-05
0.15666957 0.0314832 -0.08123659 -0.0724402 -0.045931183 0.046402123 -0.06206313 0.07816119
0.12278016 -0.05999299 0.12827092 0.14499825 0.082360476 0.14639306 -0.076771215 0.085581824
-0.015578649 -0.06617973 -0.10469286 0.0269906 -0.16059846 -0.30789122 -0.18619776 0.115161136
0.060553987 0.14823003 0.014350553 0.1680468 0.1364627 -0.11778442 -0.00083884795 -0.027968828
-0.16387807 0.085980244 -0.02597826 -0.17488453 -0.2764243 -0.065825045 -0.07097774 -0.12120142
-0.088995844 0.17009257 0.30102602 -0.2220561 0.04672719 -0.185504 -0.23734893 0.36246508
-0.0978644 -0.050767735 -0.3987209 0.042955123 -0.0033633318 -0.39514965 -0.013895899 0.026705964
0.4060635 -0.33835387 -0.11334122 0.1413419 -0.03655039 0.0008111682 0.12479512 -0.0774052
0.03640276 -0.057476334 -0.06631573 -0.063951276 0.12633225 -0.106223695 -0.08920348 -0.08921111
-0.10183365 -0.20577408 -0.21092416 -0.07634212 -0.08926057 0.031065766 -0.0005024464 -0.011358727
0.17013185 0.10788214 0.13162218 0.06399428 0.07699284 0.10834347 -0.09180837 0.05350842
0.025272464 -0.056268178 -0.075916335 -0.10017635 0.062194474 -0.021757664 -0.117648944 0.27011693
0.026427459 -0.4147408 -0.36876804 -0.39578623 -0.36579195 -0.044228256 -0.38997453 -0.40017003
0.19803299 0.22490183 0.102162816 0.116256975 0.071626365 0.15570319 0.021388585 -0.04336047
0.105707824 -0.06777531 -0.081981115 0.04754827 -0.06520604 -0.07830891 0.10679341 -0.30754793
0.039788026 0.30477095 0.1924415 0.080875695 -0.22949256 0.07066455 0.05188397 -0.022138605
0.01875074 0.10492592 0.25548488 -0.049808484 -0.14021552 -0.06795686 -0.06570279 0.08669657
0.057141285 0.07212954 0.18338262 0.13702714 0.13904089 0.16092722 -0.15557146 0.095428646
00000000: a31b 5dbd bb5f 29bd df75 b33d 232a 32bd
00000010: b06f 593d 4ecf 1dbd be1a f9bd a7a3 01be
00000020: 7545 6dbd 6ee2 633d f72b 103e e48f 883e
00000030: 7a37 2bbe 9291 f53d a648 143e aad5 d2bc
00000040: 270c 853c 931a cc3d eb8e bb3d 506d f53d
00000050: 5901 293e aad6 f13b 58d2 243e 2350 dd3c
00000060: db19 9d3d d95a 3ebe ecfe 953c ce8d 553d
00000070: b268 1f3e f873 d43d 7e4a 833d 1369 793b
00000080: 6823 e93d 113c a23c 40d2 203e 47dc 853e
00000090: 30b4 62bc 3d51 6c3c f4f1 fd3c 0182 a3bc
000000a0: 544e 67bd b8b4 23bd 4d69 84bd 8c78 e6bd
000000b0: 955a f9bd 5722 053e 5766 8ebd 08ba 803d
000000c0: 4567 093c 50a1 19bd 4a8e fe3c baf2 d83d
000000d0: 0a12 0a3e 5462 6f3d 1ecb d3bd 8752 1f3c
000000e0: d4f1 dabc 0574 4dbd 0a2a c2bc 8600 1cbd
000000f0: 4940 1abd 3d23 10bd 9bf3 97bd feee 4b3e
00000100: b6cd 943e eede 693e 8af9 333d df2e 953d
00000110: 73dc a63d 2f17 9abd e7f9 dcbd c2c4 4e3d
00000120: a302 053d 0503 0c3d 4cef 493d 1761 de3d
00000130: ab8a dbbc 4172 a6bd 0a28 4f3d a35a c93d
00000140: 024b 6b3c 6684 223e fad8 9a3e 96f8 193e
00000150: e184 8fbd d726 a1bd 47d5 60bd ac34 80be
00000160: b215 a7be 0abd 3ebe 0b1a 123e be70 4a3e
00000170: 1f1c be3d b2f0 52bd 3dc3 7e3c 3a55 0b3d
00000180: b1b2 8f3b 44d0 303e 984e 86bd 160e dbbd
00000190: ba1d 2d3e b79a ffbc 869a d63d 22b2 cebc
000001a0: bdf3 da3d de4f 5cbd 9985 63bc 7def 2fbd
000001b0: fb57 8c3d c2ec 103e a8a0 ac3d 24f0 9738
000001c0: fd6d 203e 87f4 003d 5f5f a6bd 875b 94bd
000001d0: 5622 3cbd 2710 3e3d e935 7ebd f912 a03d
000001e0: 2a74 fb3d 36bb 75bd 7459 033e 6c7a 143e
000001f0: 9cac a83d 10e8 153e 3a3a 9dbd 8645 af3d
00000200: 973d 7fbc 3d89 87bd 3669 d6bd 641b dd3c
00000210: ec73 24be eba3 9dbe a0aa 3ebe 9ad9 eb3d
00000220: 7507 783d 9dc9 173e 951e 6b3c 7614 2c3e
00000230: e1bc 0b3e f538 f1bd 22e6 5bba e21e e5bc
00000240: a7cf 27be 6916 b03d 5cd0 d4bc ee14 33be
00000250: 7c87 8dbe 48cf 86bd c75c 91bd 7338 f8bd
00000260: 7443 b6bd bf2c 2e3e 1520 9a3e ad62 63be
00000270: 0365 3f3d c3f4 3dbe 990b 73be 0695 b93e
00000280: 216d c8bd d4f1 4fbd 2525 ccbe b6f1 2f3d
00000290: 586b 5cbb 0e51 cabe a0ab 63bc 77c6 da3c
000002a0: 8ee7 cf3e b83c adbe 711f e8bd eebb 103e
000002b0: ddb5 15bd 94a4 543a 9594 ff3d 9e86 9ebd
000002c0: 0f1b 153d 4e6c 6bbd 8bd0 87bd e3f8 82bd
000002d0: 3e5d 013e cf8b d9bd 50b0 b6bd 50b4 b6bd
000002e0: 298e d0bd 71b6 52be 81fc 57be 4259 9cbd
000002f0: 3fce b6bd a27d fe3c 9bb6 03ba f419 3abc
00000300: 0b37 2e3e 50f1 dc3d f7c7 063e 6f0f 833d
00000310: 6cae 9d3d 2ee3 dd3d 0706 bcbd a52b 5b3d
00000320: 3308 cf3c 7679 66bd 067a 9bbd 4229 cdbd
00000330: a2bf 7e3d 213d b2bc eef1 f0bd c44c 8a3e
00000340: 667e d83c e858 d4be 2acf bcbe 7ea4 cabe
00000350: 1549 bbbe b028 35bd beaa c7be 16e3 ccbe
00000360: 29c9 4a3e aa4c 663e bd3a d13d 2318 ee3d
00000370: d8b0 923d a870 1f3e 1d37 af3c c09a 31bd
00000380: 587d d83d c8cd 8abd b7e5 a7bd fac1 423d
00000390: bf8a 85bd 6c60 a0bd 81b6 da3d ec76 9dbe
000003a0: c5f8 223d f00a 9c3e 620f 453e 28a2 a53d
000003b0: 1900 6bbe 93b8 903d 4984 543d 055c b5bc
000003c0: 279b 993c 67e3 d63d eace 823e fb03 4cbd
000003d0: a894 0fbe f72c 8bbd 2f8f 86bd f98d b13d
000003e0: fb0c 6a3d a7b8 933d a7c8 3b3e d850 0c3e
000003f0: bc60 0e3e 1bca 243e 204e 1fbe 1870 c33d

e1.2.bias f4 [16]
-0.11735563 -0.045581684 -0.08375804 0.079708844 0.1239476 -0.05507066 0.07688571 -0.07907202
-0.10682964 0.030076534 0.020873586 -0.026406249 0.092885286 -0.07307751 -0.02993765 0.004767053
00000000: 2658 f0bd dcb3 3abd 5689 abbd 643e a33d
00000010: 3dd8 fd3d c691 61bd 4176 9d3d 83f0 a1bd
00000020: 80c9 dabd 1063 f63c 15ff aa3c eb51 d8bc
00000030: a43a be3d a9a9 95bd cd3f f5bc f034 9c3b

e2.0.weight f4 [32, 16, 3, 3]
-0.21229827 -0.16151378 -0.12851675 -0.12882783 -0.14520374 0.019810535 -0.13282906 0.0014423924
0.15101585 0.091997065 0.050660614 0.04394756 -0.056814853 0.014813839 -0.084142976 -0.075924695
0.081494235 0.049141653 0.05025535 -0.014957108 -0.009134141 0.003371921 0.0011943239 -0.046897
-0.07733391 -0.066098034 -0.022271382 -0.12852974 -0.052911133 -0.052382503 0.21603034 0.1616974
0.21747611 -0.002189555 -0.2950067 -0.22605273 0.11385195 0.016236844 0.062255256 0.11295364
0.03711943 -0.01738387 0.1092033 0.061468042 0.14475095 -0.28372267 -0.2854993 -0.024686223
-0.037541877 -0.048574083 0.14377126 -0.17575504 -0.09132124 -0.024996534 -0.0023190419 -0.1490448
0.025468718 0.053225033 -0.074098416 -0.022233758 0.01877244 -0.040711608 -0.15123855 -0.5010964
-0.50794107 0.052073147 -0.167116 -0.30187428 0.09621552 0.27530536 -0.090323985 0.33803132
-0.08032212 -0.032641396 0.04645151 -0.0467397 0.05692434 -0.044385403 -0.091777235 -0.05393093
-0.029019635 -0.023268282 -0.21499003 -0.015954988 -0.050376225 -0.20293058 -0.24443714 -0.057597652
-0.16226587 -0.369003 -0.030976156 -0.04067148 -0.05798889 -0.09114494 -0.0270196 0.013554961
-0.019561274 0.10349315 0.09688587 0.04185714 0.05702841 0.07327537 -0.0039586457 0.0862171
0.064137295 0.103134334 -0.021404538 -0.012920009 -0.07364429 0.1465252 0.15935005 -0.0030743952
0.16907503 0.08510653 -0.19072863 -0.1633679 -0.25133145 0.004150951 0.10287245 -0.10557339
-0.06721521 0.032361425 0.017378284 0.020041449 0.10756226 0.05966379 0.0005651433 0.096083395
-0.041399486 -0.09059254 0.0014046818 -0.078986004 -0.008408243 -0.0667978 0.01831621 0.09327158
0.1051462 -0.042765986 -0.047126275 -0.09870596 -0.10485964 -0.10187879 -0.008979116 -0.037395563
-0.15325454 -0.17319907 -0.17410013 -0.043587003 0.010593833 -0.018262839 -0.27494708 -0.13151877
-0.0014712578 0.11315299 0.11086066 0.06244355 -0.032325737 0.16427515 0.019893035 -0.09569872
0.0017702586 -0.011465105 -0.04883127 0.08388731 0.016509602 0.05269076 -0.070048645 -0.010409645
0.0068720714 -0.082155645 0.03511274 0.108729154 0.096135594 0.111948654 0.26145306 0.093844436
0.17007065 0.4116614 0.3234655 0.44766104 0.051870346 0.016045744 -0.039263777 0.024463467
0.014762926 -0.051520724 0.015182838 0.022558685 -0.10491566 -0.10514803 -0.16615619 -0.12733911
0.015434193 -0.041743577 0.15198351 -0.032962307 0.099328294 0.15682869 0.05328615 0.024551043
-0.110859245 0.06464758 -0.056478817 -0.042361528 0.079293475 0.02000511 0.0039343704 -0.08845947
0.005572878 -0.047108214 -0.17330746 -0.018534366 -0.07008435 -0.12848945 -0.07460414 -0.1885754
-0.010422137 -0.07010499 0.06771198 0.05593457 0.03073662 0.051155314 0.05556976 -0.0056146095
0.02651971 0.10555293 0.024097035 0.015273406 0.12311234 0.108264595 0.22339152 0.3339451
0.2772109 0.2863534 0.12165644 0.0054834783 0.05660715 0.0711132 0.011774795 -0.014400628
-0.01018509 0.030849054 -0.053071454 -0.0022387533 -0.111754656 -0.12448702 -0.0919215 -0.09277011
-0.09562635 -0.076413915 -0.103014745 -0.04410406 0.11342211 0.026157022 0.13501438 0.065994635
00000000: b864 59be de63 25be e599 03be 71eb 03be
00000010: 4ab0 14be b449 a23c 5704 08be a80e bd3a
00000020: e6a3 1a3e f568 bc3d 8181 4f3d 5b02 343d
00000030: b1b6 68bd bfb5 723c 2753 acbd 687e 9bbd
00000040: 73e6 a63d c248 493d 8ed8 4d3d a80e 75bc
00000050: 5da7 15bc 72fb 5c3b dc8a 9c3a 1217 40bd
00000060: 3e61 9ebd 685e 87bd 7972 b6bc 4d9d 03be
00000070: 58b9 58bd 098f 56bd 0f37 5d3e 0194 253e
00000080: 0fb2 5e3e a37e 0fbb 1e0b 97be 5e7a 67be
00000090: 362b e93d 2103 853c 5eff 7e3d 3d54 e73d
000000a0: 8b0a 183d 9e68 8ebc fba5 df3d eac5 7b3d
000000b0: 9839 143e 1944 91be f72c 92be c33a cabc
000000c0: 83c5 19bd 9ef5 46bd c638 133e 21f9 33be
000000d0: a106 bbbd 88c5 ccbc 11fb 17bb 339f 18be
000000e0: c6a3 d03c 7e02 5a3d e9c0 97bd 9223 b6bc
000000f0: a9c8 993c 37c1 26bd 47de 1abe db47 00bf
00000100: 6d08 02bf a74a 553d 7520 2bbe 448f 9abe
00000110: a40c c53d d3f4 8c3e c8fb b8bd 7112 ad3e
00000120: ec7f a4bd fcb2 05bd f043 3e3d 2172 3fbd
00000130: 7f29 693d 78cd 35bd b4f5 bbbd aee6 5cbd
00000140: 96ba edbc 209d bebc 5926 5cbe 09b4 82bc
00000150: 4d57 4ebd 09cd 4fbe bb4d 7abe 84eb 6bbd
00000160: 0629 26be f6ed bcbe b5c1 fdbc 2397 26bd
00000170: c285 6dbd 33aa babd 3558 ddbc a115 5e3c
00000180: f73e a0bc 37f4 d33d 196c c63d 6472 2b3d
00000190: 9f96 693d 6611 963d 87b7 81bb 9792 b03d
000001a0: 6a5a 833d 1838 d33d 9258 afbc 72ae 53bc
000001b0: d1d2 96bd b40a 163e a92c 233e cb7b 49bb
000001c0: 0122 2d3e 554c ae3d 5e4e 43be ea49 27be
000001d0: 84ae 80be b304 883b cbae d23d dd36 d8bd
000001e0: 21a8 89bd 6a8d 043d e75c 8e3c f72d a43c
000001f0: 9a49 dc3d 0562 743d 2026 143a 5fc7 c43d
00000200: 8292 29bd 9588 b9bd 4d1d b83a 6ac3 a1bd
00000210: bac2 09bc 49cd 88bd e00b 963c 2c05 bf3d
00000220: e456 d73d 632b 2fbd 7b07 41bd 5a26 cabd
00000230: a7c0 d6bd d4a5 d0bd 241d 13bc 172c 19bd
00000240: c2ee 1cbe 195b 31be 4e47 32be 4988 32bd
00000250: c291 2d3c f39b 95bc ddc5 8cbe dbac 06be
00000260: 38d7 c0ba c1bc e73d ea0a e33d cfc4 7f3d
00000270: fe67 04bd bf37 283e b8f6 a23c b1fd c3bd
00000280: 0608 e83a 23d8 3bbc 4c03 48bd 1ccd ab3d
00000290: 253f 873c 44d2 573d aa75 8fbd 378d 2abc
000002a0: 1d2f e13b 3841 a8bd 60d2 0f3d 64ad de3d
000002b0: bde2 c43d 5645 e53d 2ddd 853e 8331 c03d
000002c0: 0027 2e3e 48c5 d23e 459d a53e d433 e53e
000002d0: 0076 543d 5d72 833c 0ed3 20bd 9c67 c83c
000002e0: 33e0 713c 6507 53bd 70c1 783c fecc b83c
000002f0: 06de d6bd da57 d7bd d924 2abe 2f65 02be
00000300: b3df 7c3c 50fb 2abd 91a1 1b3e 7c03 07bd
00000310: a26c cb3d b397 203e 9442 5a3d 451f c93c
00000320: 2c0a e3bd f365 843d 5556 67bd 4883 2dbd
00000330: 9e64 a23d c2e1 a33c e4eb 803b 3d2a b5bd
00000340: b09c b63b 8bf4 40bd 8377 31be 62d5 97bc
00000350: 6288 8fbd bd92 03be 0eca 98bd e919 41be
00000360: 9cc1 2abc 3493 8fbd 94ac 8a3d a61b 653d
00000370: 5dcb fb3c 3c88 513d 1e9d 633d c2fa b7bb
00000380: dd3f d93c 222c d83d 2567 c53c 4f3d 7a3c
00000390: 5322 fc3d d4b9 dd3d bfc0 643e dafa aa3e
000003a0: 96ee 8d3e ea9c 923e 0327 f93d c0ae b33b
000003b0: e6dc 673d cca3 913d 12eb 403c 9df0 6bbc
000003c0: 5ddf 26bc 28b7 fc3c 7461 59bd 0cb8 12bb
000003d0: a0df e4bd 0df3 febd 5741 bcbd 41fe bdbd
000003e0: bfd7 c3bd e67e 9cbd 65f9 d2bd 75a6 34bd
000003f0: da49 e83d 4047 d63c 3641 0a3e 3228 873d

e2.0.bias f4 [32]
0.108742304 -0.053295497 0.047904793 0.10328542 0.071149096 0.070778355 -0.114549026 -0.06477279
0.14342816 0.07556954 0.08412064 -0.06611788 -0.016034186 -0.04006218 -0.12244384 0.037079692
0.06839021 -0.033118922 -0.036328517 -0.06125696 -0.015474099 0.0950592 0.055906117 0.091737546
-0.029276496 0.09606742 0.0957057 0.091050856 -0.033399593 -0.020726053 -0.073351085 -0.052375533
00000000: 49b4 de3d 614c 5abd d137 443d 4e87 d33d
00000010: 9eb6 913d 3ef4 903d ae98 eabd 99a7 84bd
00000020: d5de 123e 34c4 9a3d 7147 ac3d d068 87bd
00000030: 205a 83bc 3e18 24bd d6c3 fabd e0e0 173d
00000040: 2b10 8c3d b5a7 07bd 36cd 14bd 94e8 7abd
00000050: 1387 7dbc 66ae c23d d0fd 643d e5e0 bb3d
00000060: 43d5 efbc ffbe c43d 5a01 c43d df78 ba3d
00000070: 03ce 08bd afc9 a9bc 1839 96bd ba87 56bd

e2.2.weight f4 [32, 32, 3, 3]
0.10119119 0.05874854 0.08239062 -0.10488123 0.01187154 -0.028696036 -0.047533438 0.06956351
0.04845214 -0.07305429 0.049679603 0.034489255 0.022954382 0.066444464 0.045495603 -0.09844336
-0.06930692 -0.07788343 0.0561997 0.1815812 0.12779382 0.03527334 0.0366627 0.060985
0.14475094 0.08558683 0.21343152 -0.06858648 -0.0718326 -0.05354681 0.026816165 -0.031005474
-0.095093854 -0.05457312 -0.04290667 0.041869305 -0.24809046 -0.20761663 -0.11026776 -0.07447484
-0.079085074 -0.05069861 -0.097927146 -0.016972981 -0.07591933 0.10159012 0.08293133 0.106006816
0.13292637 0.0883508 0.06265415 0.2399215 0.10260435 0.12159868 -0.0063782446 0.02466647
0.062041346 0.03076038 0.006052504 -0.013112631 0.03445687 0.015103459 -0.055744845 0.0059629097
0.0877552 0.11424857 0.041192174 0.018613689 -0.0028764815 0.08957708 0.01365262 0.10787735
-0.026482759 -0.0041679447 0.0038139788 0.098265104 0.011842571 -0.028349485 0.19909239 0.042870905
0.016574683 -0.14457457 -0.09617987 0.05050768 0.06020003 -0.048821446 0.060666535 0.098679155
0.07336294 0.18097891 0.17587091 0.060813695 -0.03224186 0.033517662 0.03315016 -0.029285371
-0.010106761 -0.12376226 -0.111919396 -0.06625727 -0.036676213 -0.039053343 -0.027111186 -0.05286988
-0.08091429 -0.05265405 -0.077512555 -0.14578538 -0.009403512 -0.060709856 -0.0100887045 -0.043433674
-0.024781074 0.032173064 0.031306688 0.011942713 0.030859364 0.013609584 0.039717827 -0.10484706
0.074095026 -0.04519198 -0.0034195434 0.0021741248 -0.18041928 -0.04912298 0.03540976 -0.052531082
0.029762905 0.01276713 0.012983788 -0.02978414 -0.025246076 -0.061780322 0.004233772 -0.047581535
-0.015672298 -0.040650934 -0.05205643 0.0228544 0.011476421 0.19412442 0.115310065 0.03520546
0.12833363 -0.020707274 0.116438985 -0.04149013 -0.076839894 -0.023996273 0.11017864 -0.060397517
0.021877516 0.0953143 0.11168299 0.090024576 0.033826817 -0.075172536 -0.08932889 -0.027379682
-0.01173407 -0.021627296 0.068056375 0.009345593 0.06458219 0.07020288 0.018201837 0.1315156
0.10017689 0.07628455 0.23215944 -0.17638321 -0.23886418 -0.20019181 -0.04284616 -0.25013387
-0.17042509 0.07302107 -0.054821238 0.06021514 0.019818641 0.028585711 0.06741597 0.016568758
-0.05885481 0.05643511 0.06589785 0.039781168 0.01674653 -0.017683959 -0.0855526 -0.024475196
0.030061794 -0.046828896 -0.08241603 0.009588983 0.07003927 0.07617151 -0.0006786056 0.05098604
0.07554409 0.08987692 0.04379512 0.0015582284 0.07848123 0.03525503 0.11668415 -0.11979686
-0.053097423 0.06156591 -0.007727288 0.03331056 0.09735807 0.0783037 0.12145954 0.040642932
0.039301384 0.018311495 0.15414381 0.09700709 0.077221274 0.12308615 0.12683125 0.08012526
0.18043478 0.16218154 0.10860272 0.12706593 0.0972199 0.08538651 0.039263465 0.19114786
0.14722884 0.20396462 -0.07014131 -0.12995642 -0.02461967 -0.06728448 -0.13115254 0.06266243
0.09618416 0.08861899 0.15170966 0.09700868 0.104323775 -0.0032751067 -0.050741218 -0.04088296
0.029322887 -0.005080852 -0.059936553 0.18033323 0.032422066 0.0745844 0.03267974 0.026280124
00000000: 543d cf3d 4fa2 703d 6abc a83d f8cb d6bd
00000010: d980 423c f313 ebbc 6cb2 42bd 5077 8e3d
00000020: c075 463d 7d9d 95bd d77c 4b3d 9b44 0d3d
00000030: d40a bc3c 0914 883d 9959 3a3d ac9c c9bd
00000040: c9f0 8dbd 5981 9fbd a831 663d 6cf0 393e
00000050: 62dc 023e c77a 103d a12b 163d 68cb 793d
00000060: 9739 143e 2648 af3d cb8d 5a3e 1277 8cbd
00000070: f81c 93bd e653 5bbd 93ad db3c 31ff fdbc
00000080: 91c0 c2bd 1088 5fbd e8be 2fbd 267f 2b3d
00000090: 6d0b 7ebe 7499 54be 10d4 e1bd 4486 98bd
000000a0: 5bf7 a1bd 58a9 4fbd 078e c8bd ec0a 8bbc
000000b0: 987b 9bbd 7b0e d03d e7d7 a93d 1a1a d93d
000000c0: da1d 083e 44f1 b43d d250 803d fbad 753e
000000d0: 3b22 d23d bb08 f93d 9800 d1bb 5611 ca3c
000000e0: 111f 7e3d 31fd fb3c 1554 c63b 5cd6 56bc
000000f0: a622 0d3d 8074 773c b554 64bd 8364 c33b
00000100: 00b9 b33d 27fb e93d 20b9 283d bc7b 983c
00000110: 5a83 3cbb 3074 b73d 3daf 5f3c cdee dc3d
00000120: 5ff2 d8bc 4193 88bb f2f3 793b 373f c93d
00000130: 5807 423c 2e3d e8bc e0de 4b3e 6799 2f3d
00000140: a1c7 873c 5b0b 14be f4f9 c4bd 24e1 4e3d
00000150: 4f94 763d fff8 47bd 797d 783d 4c18 ca3d
00000160: 4f3f 963d 8952 393e 8117 343e c817 793d
00000170: 0a10 04bd d149 093d 76c8 073d e0e7 efbc
00000180: d496 25bc 1177 fdbd ff35 e5bd e4b1 87bd
00000190: cc39 16bd 66f6 1fbd 4718 debc 168e 58bd
000001a0: 64b6 a5bd c6ab 57bd e7be 9ebd c348 15be
000001b0: 3011 1abc e6aa 78bd 184b 25bc 82e7 31bd
000001c0: ae01 cbbc e7c7 033d 713b 003d 5eab 433c
000001d0: c7cc fc3c bcfa 5e3c 29af 223d 0eba d6bd
000001e0: 22bf 973d 3a1b 39bd 6b1a 60bb c37b 0e3b
000001f0: d5bf 38be 2e35 49bd d309 113d d52a 57bd
00000200: 56d1 f33c 392d 513c f4b9 543c defd f3bc
00000210: dcd0 cebc 5d0d 7dbd 74bb 8a3b dbe4 42bd
00000220: 3163 80bc 9881 26bd 2039 55bd 2739 bb3c
00000230: 9907 3c3c 8dc8 463e af27 ec3d 9a33 103d
00000240: e469 033e 4da2 a9bc 9077 ee3d 8ef1 29bd
00000250: 3c5e 9dbd d593 c4bc 57a5 e13d 6363 77bd
00000260: 7a38 b33c 2534 c33d 0dba e43d ce5e b83d
00000270: fd8d 0a3d 0ff4 99bd 11f2 b6bd 5b4b e0bc
00000280: 4240 40bc ba2b b1bc 2461 8b3d 421e 193c
00000290: ab43 843d 87c6 8f3d 051c 953c 07ac 063e
000002a0: 8b29 cd3d 133b 9c3d 34bb 6d3e cd9d 34be
000002b0: d098 74be 15ff 4cbe 747f 2fbd 8c11 80be
000002c0: ea83 2ebe 128c 953d 3c8c 60bd 27a4 763d
000002d0: b45a a23c 952c ea3c 6211 8a3d 34bb 873c
000002e0: be11 71bd 8028 673d 74f5 863d 94f1 223d
000002f0: 0530 893c f3dd 90bc 3436 afbd 3580 c8bc
00000300: 2744 f63c a8cf 3fbd bcc9 a8bd 1c1b 1d3c
00000310: c070 8f3d cfff 9b3d 73e4 31ba bdd6 503d
00000320: dcb6 9a3d 6411 b83d 8362 333d 783d cc3a
00000330: c4ba a03d 9467 103d 1af8 ee3d 0e58 f5bd
00000340: af7c 59bd 892c 7c3d 3135 fdbb a770 083d
00000350: ab63 c73d b15d a03d c8bf f83d 3479 263d
00000360: 7dfa 203d fd01 963c e0d7 1d3e a7ab c63d
00000370: 3026 9e3d 9714 fc3d 0de0 013e b618 a43d
00000380: e5c3 383e eb12 263e 1a6b de3d 921d 023e
00000390: 3a1b c73d 1fdf ae3d bad2 203d 44bc 433e
000003a0: 28c3 163e 1adc 503e 3fa6 8fbd 4c13 05be
000003b0: 31af c9bc 72cc 89bd da4c 06be 2955 803d
000003c0: 33fc c43d df7d b53d c759 1b3e 7dac c63d
000003d0: b4a7 d53d 2ca3 56bb 06d6 4fbd e474 27bd
000003e0: 8d36 f03c 477d a6bb 0880 75bd 46a9 383e
000003f0: 00cd 043d b5bf 983d 31db 053d 6a49 d73c

e2.2.bias f4 [32]
-0.049530417 -0.051934883 0.026810342 0.12278856 0.054124575 -0.039975196 0.02166955 0.07740431
-0.024734674 -0.12860541 0.15532805 -0.11576053 0.09861096 -0.008633434 -0.05935842 -0.030139213
-0.08693879 0.05524683 0.07403808 -0.05782414 0.08218161 0.028433746 0.044945784 0.0063767894
-0.0034898 -0.08288029 0.03107432 -0.025353568 -0.1149319 0.14979753 0.09758523 0.06865857
00000000: 68e0 4abd acb9 54bd 5da1 db3c 9278 fb3d
00000010: bbb1 5d3d 08bd 23bd 5784 b13c 2786 9e3d
00000020: 5fa0 cabc 23b1 03be 510e 1f3e db13 edbd
00000030: 8bf4 c93d 3f73 0dbc d121 73bd 83e6 f6bc
00000040: f70c b2bd 804a 623d 47a1 973d 01d9 6cbd
00000050: d54e a83d e3ed e83c 1219 383d 63f4 d03b
00000060: 21b5 64bb 24bd a9bd 938f fe3c 49b2 cfbc
00000070: 6a61 ebbd 8664 193e c4da c73d dd9c 8c3d

b.0.weight f4 [64, 32, 3, 3]
-0.020907827 0.05906983 0.033802915 0.0010558104 -0.04730133 0.08046575 -0.038547523 0.044280607
0.13857375 -0.0026044163 0.0054768706 0.11643673 -0.041485593 0.060974307 0.10282243 0.04445116
0.11176692 0.04551676 0.111766174 0.16755646 0.017076539 0.14473774 0.039444946 -0.061416373
-0.17726478 -0.12955755 -0.09095942 -0.11109989 -0.12920672 -0.0142159695 -0.07014284 -0.046316326
0.013401025 -0.03575908 -0.088448584 0.16180046 -0.013868604 -0.109979846 -0.16265808 -0.10327096
-0.021817924 -0.06894631 0.09340989 0.1316895 0.031966552 -0.0022580794 0.06219509 0.007983616
0.02918224 0.051882964 -0.004011205 -0.038529612 0.03159386 -0.01978629 0.053107917 -0.027632995
0.07085986 0.07958109 -0.06985994 -0.03451832 -0.0051838076 0.07827339 0.14812414 -0.110128485
-0.07412353 -0.11268573 -0.0031807318 -0.024964066 -0.03285508 0.06382344 0.03764755 0.05602658
0.091704465 -0.045592763 -0.12000762 0.026251663 -0.10434886 -0.1432978 -0.022813033 -0.10821158
-0.019400999 0.02624392 -0.041353684 -0.052725796 0.03227021 0.046829704 -0.06066025 -0.029812092
-0.06002656 -0.055109356 -0.028430015 -0.052130107 -0.060669497 0.005829237 0.055916116 0.0029333583
0.058262847 0.15928467 0.16975336 0.04428069 -0.07264788 0.046298582 -0.051453937 -0.044227395
0.00841519 -0.01220604 -0.11081292 0.008190357 0.004134366 -0.05883662 0.005384187 0.05844316
-0.036025554 0.017592913 0.08146605 0.017713051 0.050125323 0.07679492 0.008600156 -0.054331925
0.011433887 -0.098852456 0.033833224 0.07436604 0.07200248 0.05849497 -0.0044220355 -0.011501658
0.04439379 -0.03252433 0.0051392443 -0.02702368 -0.07607113 -0.026012838 0.035410553 0.05192345
-0.084475845 -0.16754639 0.10081868 0.013295368 0.028313411 -0.09531299 -0.004625929 -0.054615892
-0.07673542 -0.20964555 -0.21861693 0.111237265 0.07412591 -0.13968526 -0.026799709 -0.07239459
-0.07304594 -0.041746248 -0.16666807 -0.1770932 0.04122893 -0.02866574 -0.012889205 -0.025746018
0.031690657 -0.099392034 0.12851746 0.021597408 0.043348018 -0.036962025 0.008134287 -0.0022404073
0.030532978 0.024648182 0.11748232 -0.031813808 -0.037183534 0.006352355 0.057278555 0.004493809
0.02863175 -0.018328534 -0.04859669 -0.05164916 0.0053071426 -0.026579931 0.08312241 0.02799027
-0.10145971 -0.01702589 0.098319955 0.02766497 0.00046694238 0.052034725 0.055625375 -0.041145343
-0.065768994 -0.019989418 -0.049510103 0.016206136 -0.11459455 -0.17006132 0.02103236 0.11092628
0.0373383 0.08466221 0.01489622 -0.016695837 0.03164051 0.07961639 -0.0530075 0.041532516
-0.056631885 0.07792296 0.023184622 -0.20271717 0.0049095494 0.07810812 -0.080072515 0.13638048
-0.012129444 -0.00088626205 -0.039137147 -0.019051412 0.024775915 0.044449873 -0.035257936 0.00278199
-0.018839683 0.004257007 0.081981786 0.08728201 0.070009224 0.024732098 0.053989224 0.02333553
0.006380249 -0.026989765 0.009478624 -0.005761879 0.06318138 -0.0017038282 -0.077825464 0.041610993
0.007252984 0.015300076 0.0016734083 0.13841341 0.085022114 0.053958338 -0.028742481 0.0065383166
-0.026054801 0.014322776 -0.099455915 -0.0052806293 0.1156044 -0.10539766 -0.12956747 0.03288454
00000000: e446 abbc 35f3 713d ed74 0a3d 1e63 8a3a
00000010: 0abf 41bd 3acb a43d 02e4 1dbd 955f 353d
00000020: 47e6 0d3e dbae 2abb 5277 b33b 6176 ee3d
00000030: ccec 29bd 32c0 793d 9194 d23d 6b12 363d
00000040: 0ee6 e43d c86f 3a3d aae5 e43d ec93 2b3e
00000050: 19e4 8b3c 2136 143e 0691 213d bc8f 7bbd
00000060: e684 35be bcaa 04be ef48 babd 5788 e3bd
00000070: c44e 04be 19ea 68bc 0da7 8fbd 30b6 3dbd
00000080: f98f 5b3c 1d78 12bd 8824 b5bd 05af 253e
00000090: 2439 63bc 1d3d e1bd d78f 26be ba7f d3bd
000000a0: 81bb b2bc b933 8dbd af4d bf3d 9dd9 063e
000000b0: 5cef 023d 49fc 13bb 47c0 7e3d b6cd 023c
000000c0: 980f ef3c 3b83 543d 6d70 83bb 3ad1 1dbd
000000d0: 9068 013d dc16 a2bc b087 593d 975e e2bc
000000e0: f91e 913d 69fb a23d ba12 8fbd 1563 0dbd
000000f0: eedc a9bb cd4d a03d dbad 173e 0b8b e1bd
00000100: 14ce 97bd c7c7 e6bd d373 50bb 7181 ccbc
00000110: 0c93 06bd ddb5 823d 5134 1a3d 217c 653d
00000120: 8dcf bb3d 7abf 3abd 8ec6 f5bd ba0d d73c
00000130: dbb4 d5bd a9bc 12be 66e2 babc 089e ddbd
00000140: d8ee 9ebc 7dfd d63c 7b62 29bd 01f7 57bd
00000150: c52d 043d 81d0 3f3d e276 78bd 7d38 f4bc
00000160: 69de 75bd 59ba 61bd 10e6 e8bc 6186 55bd
00000170: 9480 78bd 2f03 bf3b 4c08 653d 963d 403b
00000180: 06a5 6e3d 851b 233e d3d3 2d3e ab5f 353d
00000190: 69c8 94bd 95a3 3d3d 5dc1 52bd c927 35bd
000001a0: dddf 093c d8fb 47bc e2f1 e2bd d930 063c
000001b0: 9379 873b abfe 70bd d66d b03b 1862 6f3d
000001c0: 888f 13bd 031f 903c acd7 a63d f61a 913c
000001d0: 3650 4d3d a846 9d3d abe7 0c3c 278b 5ebd
000001e0: 3355 3b3c 2873 cabd b594 0a3d 394d 983d
000001f0: 0976 933d 6c98 6f3d b9e6 90bb 7371 3cbc
00000200: 43d6 353d 3b38 05bd 1b67 a83b c460 ddbc
00000210: 2ecb 9bbd e018 d5bc a80a 113d afad 543d
00000220: ac01 adbd 4891 2bbe 067a ce3d d1d4 593c
00000230: 87f1 e73c 7533 c3bd 1b95 97bb eab4 5fbd
00000240: 7627 9dbd 53ad 56be 1edd 5fbe 5dd0 e33d
00000250: 53cf 973d a709 0fbe 108b dbbc 9d43 94bd
00000260: 1c99 95bd 1dfe 2abd 09ab 2abe eb57 35be
00000270: abdf 283d 6ad4 eabc 3e2d 53bc 50e9 d2bc
00000280: 10ce 013d 0d8e cbbd 159a 033e 0ced b03c
00000290: b18d 313d 7e65 17bd ac45 053c ccd3 12bb
000002a0: 4c20 fa3c fcea c93c 929a f03d 324f 02bd
000002b0: c34d 18bd 6a27 d03b eb9c 6a3d cd40 933b
000002c0: 228d ea3c b925 96bc 530d 47bd 128e 53bd
000002d0: 8ae7 ad3b 28be d9bc 153c aa3d da4b e53c
000002e0: 1cca cfbd e179 8bbc f95b c93d a6a1 e23c
000002f0: f2cf f439 5d22 553d 6fd7 633d 0588 28bd
00000300: e5b1 86bd d9c0 a3bc 1bcb 4abd bbc2 843c
00000310: 8cb0 eabd 8e24 2ebe 0e4c ac3c 512d e33d
00000320: 0cf0 183d 6163 ad3d 460f 743c b5c5 88bc
00000330: 7b99 013d eb0d a33d 641e 59bd 001e 2a3d
00000340: d6f6 67bd 1396 9f3d aded bd3c 1795 4fbe
00000350: 49e0 a03b 26f7 9f3d 0ffd a3bd 53a7 0b3e
00000360: 93ba 46bc 0a54 68ba 464e 20bd b511 9cbc
00000370: dcf6 ca3c 1211 363d a06a 10bd 0c52 363b
00000380: ae55 9abc 5d7e 8b3b 11e6 a73d e9c0 b23d
00000390: ff60 8f3d f89a ca3c ce23 5d3d 272a bf3c
000003a0: 6811 d13b a419 ddbc 3b4c 1b3c 25ce bcbb
000003b0: 3d65 813d fd52 dfba f562 9fbd 4a70 2a3d
000003c0: 71aa ed3b 2cad 7a3c 4456 db3a 3fbc 0d3e
000003d0: 1320 ae3d 6b03 5d3d 5a75 ebbc 603f d63b
000003e0: e170 d5bc 14aa 6a3c 8baf cbbd 2109 adbb
000003f0: 00c2 ec3d bada d7bd 56ad 04be f0b1 063d

b.0.bias f4 [64]
-0.035150614 0.0011715996 0.013986206 0.021576008 0.07244221 -0.023079852 0.062466096 0.015440833
0.07517724 0.04989549 0.08686838 0.06380035 0.04316088 -0.106316164 0.028595263 0.109428585
0.1093719 -0.0406155 -0.061549332 0.08151633 -0.015825603 0.02278007 -0.01331008 0.028095001
0.14104822 0.1770233 -0.0041982546 0.16796012 -0.052902795 -0.014373049 0.119148016 -0.108708225
-0.046946887 0.21859768 0.09075436 0.012975457 -0.03944827 -0.07337302 0.092441544 0.18311659
-0.035752628 -0.04494963 0.040904954 -0.10684787 -0.02893201 0.102701955 0.0053009363 0.01367357
0.056572106 -0.08977752 -0.09691848 -0.033476356 0.12699328 0.001580398 -0.028556397 0.07006548
-0.051819436 0.035807736 0.13747719 0.1417904 -0.04209703 -0.026930016 0.016588561 -0.053808462
00000000: 17fa 0fbd 5c90 993a 6626 653c 2bc0 b03c
00000010: 955c 943d f511 bdbc 73dc 7f3d 8cfb 7c3c
00000020: 86f6 993d 375f 4c3d 0de8 b13d c2a9 823d
00000030: 77c9 303d 4abc d9bd 9d40 ea3c 181c e03d
00000040: 60fe df3d 705c 26bd 271b 7cbd 09f2 a63d
00000050: b2a4 81bc 459d ba3c 8612 5abc 7d27 e63c
00000060: f26e 103e 9945 353e 8391 89bb bdfd 2b3e
00000070: 9ab0 58bd f07c 6bbc e003 f43d 6ba2 debd
00000080: 614b 40bd 12d8 5f3e 6cdd b93d 0397 543c
00000090: 8294 21bd 9844 96bd fe51 bd3d ea82 3b3e
000000a0: 5971 12bd 1a1d 38bd f48b 273d 0ed3 dabd
000000b0: d302 edbc 6755 d23d 7ab3 ad3b 1c07 603c
000000c0: 27b8 673d 47dd b7bd 327d c6bd 811e 09bd
000000d0: 870a 023e 5b25 cf3a 1bef e9bc 7e7e 8f3d
000000e0: 9e40 54bd 22ab 123d d2c6 0c3e 8131 113e
000000f0: ef6d 2cbd 569c dcbc bce4 873c 4366 5cbd

b.2.weight f4 [64, 64, 3, 3]
-0.07927588 -0.06636014 -0.06413836 -0.0072702956 -0.0018498668 -0.06584939 -0.019242637 -0.04470572
-0.04306076 -0.05612464 -0.005970538 0.007193227 -0.057981573 0.0016229313 0.0057803392 -0.040385157
-0.044668276 0.019672813 -0.08583356 -0.059451073 0.012915537 -0.03904002 -0.0073816036 -0.07384619
-0.038176786 -0.061755363 -0.033983544 -0.08544943 -0.058398772 -0.049692508 0.008888454 -0.06039827
0.039213378 -0.01602909 0.005986683 0.0057139606 -0.018843926 -0.05036133 -0.07085277 -0.043867335
-0.07187424 0.02849589 -0.03728549 0.046968788 -0.024704644 -0.07284732 -0.08989329 0.0031909873
0.0013085906 -0.009090464 -0.009636482 -0.039909236 -0.05830334 -0.027954983 -0.035783984 -0.06802118
0.025100226 -0.040619407 0.006482196 -0.018818425 -0.036809407 -0.035900664 0.060636707 -0.030344244
-0.067911655 -0.022569606 -0.028661791 -0.05969236 -0.048970424 0.0049897707 -0.051170714 -0.054961365
-0.044035923 -0.07279008 -0.00905736 -0.00988615 0.048007894 0.014487819 -0.0595059 -0.055634577
0.01052544 -0.040440544 0.0026828109 -0.0088140955 0.012412203 -0.03178074 0.02518153 -0.018717952
-0.080061436 -0.027607052 -0.040495194 0.018929342 -0.047045 -0.04469994 0.04168356 -0.025011305
0.010976316 0.014981376 -0.007946046 0.033415373 -0.02583405 -0.0334801 0.035059977 0.05272531
-0.015618043 0.042987507 -0.020739771 -0.06263266 -0.040270522 -0.042685922 -0.044292826 -0.0390792
-0.025923094 -0.018074386 0.00444596 -0.0027129883 -0.015220871 0.017140102 0.034394156 -0.04101146
-0.031946875 -0.026608035 0.008087177 0.036559757 -0.015164034 0.03021372 -0.026792094 -0.002790936
-0.015180843 -0.06687234 -0.0037868265 -0.005065597 -0.052455153 -0.034026682 -0.0014223868 -0.0045172395
0.014829802 -0.00089981925 0.02029642 0.03790718 -0.042557992 0.031679288 0.018696208 -0.005792865
-0.04743822 -0.03889255 -0.0024347927 -0.06512707 -0.034743246 0.000102792386 -0.038247585 0.0001012283
0.020377932 -0.038596123 0.041113846 0.013734467 -0.01741753 0.024235725 -0.028169509 0.015293835
0.02854569 0.035058577 -0.0302469 -0.06117247 -0.020657256 -0.012461955 -0.01735287 -0.04242124
-0.00662004 -0.050707318 0.0063873734 -0.076596305 -0.044743408 -0.06743783 0.005228443 -0.038919855
-0.05600802 -0.01909208 -0.0022290885 0.02429761 -0.06681343 -0.05189918 -0.056047037 -0.0127076525
-0.085776605 -0.031951226 -0.017715061 -0.051821724 -0.0026932426 -0.06447758 -0.06115663 -0.044141002
-0.004907703 -0.047557797 -0.07505463 -0.050058026 0.0031922997 -0.00031261292 0.019518754 -0.016269373
0.03218486 0.054844644 0.0027510526 0.006291897 -0.026533553 0.019408379 -0.034289118 -0.00734794
-0.01727153 -0.0011323707 -0.004917534 -0.072390564 0.033346053 0.006021674 -0.035184205 -0.037501078
-0.06621371 -0.022684718 -0.08335312 -0.069573425 -0.074611306 0.0034230072 -0.01292114 0.020803975
-0.011094172 -0.039211143 0.00797627 -0.02665363 -0.04274736 -0.006786287 0.027168816 0.009414671
-0.02391441 0.01875594 -0.036554176 -0.030489828 -0.049067 -0.0535063 -0.05461284 -0.015869742
-0.048670426 -0.053076148 -0.017962145 0.033833455 -0.0009557297 -0.055546638 0.03473851 -0.033914503
-0.059313275 0.02988208 -0.033694312 -0.03836631 -0.051472515 -0.03441941 -0.0462324 -0.05949469
00000000: 645b a2bd d3e7 87bd f95a 83bd a93b eebb
00000010: 3b77 f2ba 0cdc 86bd bca2 9dbc 581d 37bd
00000020: 7b60 30bd f3e2 65bd 81a4 c3bb 29b5 eb3b
00000030: 167e 6dbd 8ab8 d43a 0069 bd3b e86a 25bd
00000040: 15f6 36bd e128 a13c 81c9 afbd f882 73bd
00000050: b09b 533c 6ee8 1fbd 61e1 f1bb ac3c 97bd
00000060: 435f 1cbd 31f3 7cbd 5432 0bbd 1c00 afbd
00000070: 8d33 6fbd 5f8a 4bbd e1a0 113c 2d64 77bd
00000080: 359e 203d 704f 83bc f02b c43b 2d3c bb3b
00000090: 945e 9abc af47 4ebd 421b 91bd 3cae 33bd
000000a0: cd32 93bd 3670 e93c acb8 18bd 5862 403d
000000b0: 6561 cabc fa30 95bd f919 b8bd e21f 513b
000000c0: 0485 ab3a 2bf0 14bc 56e2 1dbc de77 23bd
000000d0: 7ccf 6ebd d901 e5bc 3a92 12bd b04e 8bbd
000000e0: fd9e cd3c 8960 26bd 9a68 d43b 1929 9abc
000000f0: 76c5 16bd 930c 13bd 325e 783d 7e94 f8bc
00000100: 4415 8bbd e5e3 b8bc 22cc eabc fa7f 74bd
00000110: 3695 48bd 3b81 a33b 6298 51bd 2b1f 61bd
00000120: 035f 34bd f712 95bd 5265 14bc 85f9 21bc
00000130: eda3 443d 515e 6d3c 75bc 73bd 15e1 63bd
00000140: e572 2c3c fca4 25bd 19d2 2f3b ff68 10bc
00000150: 8d5c 4b3c 852c 02bd 7f49 ce3c 6456 99bc
00000160: 40f7 a3bd 2f28 e2bc 4ade 25bd b511 9b3c
00000170: 42b2 40bd 4917 37bd 61bc 2a3d 82e4 ccbc
00000180: 02d6 333c 7274 753c 2230 02bc 8fde 083d
00000190: eea1 d3bc 6e22 09bd 0d9b 0f3d 7ff6 573d
000001a0: d2e2 7fbc ab13 303d 74e6 a9bc 8d45 80bd
000001b0: b4f2 24bd 6fd7 2ebd 656c 35bd 8311 20bd
000001c0: ab5c d4bc bc10 94bc 6aaf 913b 64cc 31bb
000001d0: f660 79bc 6669 8c3c e3e0 0c3d a2fb 27bd
000001e0: bada 02bd 18f9 d9bc 1480 043c afbf 153d
000001f0: 9272 78bc c382 f73c 187b dbbc 23e8 36bb
00000200: 12b9 78bc 5ef4 88bd 682c 78bb 4ffd a5bb
00000210: 37db 56bd 905f 0bbd 626f baba 5a05 94bb
00000220: b3f8 723c d9e1 6bba ae44 a63c 8f44 1b3d
00000230: 4a51 2ebd 24c2 013d ca28 993c 13d2 bdbb
00000240: 944e 42bd cb4d 1fbd 0b91 1fbb 5761 85bd
00000250: ef4e 0ebd 3e92 d738 80a9 1cbd 884a d438
00000260: 9fef a63c f816 1ebd fe66 283d 8806 613c
00000270: 35af 8ebc 008a c63c bec3 e6bc fe92 7a3c
00000280: a7d8 e93c 9599 0f3d 59c8 f7bc fc8f 7abd
00000290: 6839 a9bc 3a2d 4cbc 9b27 8ebc e5c1 2dbd
000002a0: ecec d8bb 7ab2 4fbd 2c4d d13b 86de 9cbd
000002b0: dd44 37bd d81c 8abd 5c53 ab3b 6d6a 1fbd
000002c0: aa68 65bd fe66 9cbc e615 12bb c80b c73c
000002d0: 7bd5 88bd 3c94 54bd 9491 65bd c233 50bc
000002e0: a5ab afbd 4adf 02bd 2d1f 91bc 0443 54bd
000002f0: 1d81 30bb d20c 84bd 607f 7abd 32cd 34bd
00000300: ccd0 a0bb f7cb 42bd 3eb6 99bd a509 4dbd
00000310: e735 513b 32e6 a3b9 cbe5 9f3c 5947 85bc
00000320: 46d4 033d c7a4 603d 014b 343b 422c ce3b
00000330: e55c d9bc 52fe 9e3c bf72 0cbd fdc6 f0bb
00000340: 067d 8dbc 0e6c 94ba 4423 a1bb 8141 94bd
00000350: df95 083d 7651 c53b 501d 10bd bb9a 19bd
00000360: 0e9b 87bd 4dd5 b9bc 0ab5 aabd 837c 8ebd
00000370: d0cd 98bd 8854 603b 30b3 53bc 196d aa3c
00000380: 54c4 35bc dd9b 20bd e7ae 023c b758 dabc
00000390: db17 2fbd 805f debb 2391 de3c fe3f 1a3c
000003a0: 27e8 c3bc 0fa6 993c d5b9 15bd cec5 f9bc
000003b0: 7bfa 48bd 6c29 5bbd b7b1 5fbd 4301 82bc
000003c0: a45a 47bd 6066 59bd 5925 93bc f394 0a3d
000003d0: ef89 7aba df84 63bd f849 0e3d efe9 0abd
000003e0: 7af2 72bd 44cb f43c 0c03 0abd fe25 1dbd
000003f0: d8d4 52bd 5efb 0cbd 2f5e 3dbd b4b0 73bd

b.2.bias f4 [64]
-0.013138886 -0.0039312374 -0.026111273 -0.07292781 0.013423652 0.09581662 0.0076011294 0.038036905
-0.0666099 0.087408036 -0.05234607 -0.06759397 0.055818263 -0.017135533 -0.07983298 -0.026534734
0.14394602 0.024542933 -0.04721973 -0.05319568 -0.07264262 -0.03747808 0.048201993 -0.044702325
0.036287386 -0.011053062 0.0011875447 -0.0660467 0.08627392 0.049040638 0.014343868 -0.04155067
0.0157619 -0.036977097 0.049808193 -0.0539978 0.14234392 -0.029082201 -0.06698896 -0.024226468
0.097801074 -0.027731013 4.4746168e-05 0.0370961 -0.027241798 0.07217845 -0.05775867 -0.00081615255
0.023406954 0.116377376 0.101729736 -0.0057144985 -0.017323919 -0.0033836733 0.050422948 -0.014768483
0.05426123 0.031944323 -0.008898378 -0.02965893 -0.08733956 0.08725549 -0.014789526 0.12262726
00000000: 7b44 57bc 9cd1 80bb 4fe7 d5bc 2d5b 95bd
00000010: e1ee 5b3c 813b c43d e512 f93b 96cc 1b3d
00000020: c56a 88bd fc02 b33d d568 56bd b56e 8abd
00000030: b1a1 643d d15f 8cbc 797f a3bd 5f5f d9bc
00000040: 9666 133e 430e c93c 7a69 41bd b7e3 59bd
00000050: a7c5 94bd 9d82 19bd 746f 453d c919 37bd
00000060: 15a2 143d e717 35bc 63a7 9b3a 7e43 87bd
00000070: 62b0 b03d d6de 483d 8b02 6b3c 0931 2abd
00000080: 1a1f 813c 4c75 17bd ad03 4c3d cc2c 5dbd
00000090: 9bc2 113e cc3d eebc 8231 89bd 9676 c6bc
000000a0: ee4b c83d 262c e3bc d5ad 3b38 15f2 173d
000000b0: 312a dfbc 4cd2 933d 5b94 6cbd 12f3 55ba
000000c0: f1bf bf3c 4357 ee3d ae57 d03d b040 bbbb
000000d0: e4ea 8dbc 9ec0 5dbb 4b88 4e3d 82f7 71bc
000000e0: 0641 5e3d 0dd8 023d 81ca 11bc 49f7 f2bc
000000f0: 15df b2bd 02b3 b23d c54f 72bc 0024 fb3d

u2.weight f4 [64, 32, 2, 2]
-0.0809679 0.038084432 -0.10319487 -0.09913364 -0.100433476 -0.00387556 0.013692918 0.00048395668
0.09937943 -0.025230624 0.09669679 0.010188099 -0.092202485 -0.014346627 -0.11460877 -0.0244543
-0.033945832 0.045407813 -0.056543566 0.035505 0.016474474 0.08461271 0.060577642 0.0815495
0.11109337 0.12261712 -0.023122257 0.04032493 -0.034138463 -0.023244856 -0.09740899 -0.11575656
0.068613224 0.07805925 -0.01767186 0.036835704 -0.02003091 -0.09946349 0.010841281 -0.067762785
0.015098662 -0.031025004 -0.035333153 0.021456107 0.019358544 0.049697258 0.04706376 -0.102351524
-0.072524436 -0.07173568 0.011702615 0.031920254 0.08283074 0.00059719407 0.07975268 0.05654697
-0.01354695 0.05166177 -0.035573352 -0.10518595 0.039901055 0.072308056 0.043388322 0.07162433
0.05833596 0.11423729 -0.004445293 0.023464859 -0.095628545 -0.068450265 -0.0026617364 -0.048416797
0.07383393 0.031157952 0.00074637646 0.07486341 0.016564565 -0.030498184 0.027559116 -0.027037725
-0.064662695 0.04976046 -0.057872903 0.044775054 -0.02362148 -0.07576495 0.01934438 -0.0217698
0.0010449511 0.034153134 -0.09546342 -0.07955792 0.03764629 -0.052829865 -0.09159871 0.028125444
0.0008867466 0.070164956 0.048370376 -0.06400171 -0.112670116 0.0090120295 0.04594223 -0.063563295
-0.04462315 -0.04645763 -0.007356346 -0.08568661 0.004515048 0.03945844 0.019620774 -0.095241606
0.0034969363 0.07042716 0.107525356 0.069784015 -0.005116709 -0.031883378 -0.090291485 -0.017260728
-0.11503696 -0.01982561 0.043886274 0.047250953 0.04181552 0.054536916 -0.055469383 0.08196681
-0.0041047884 -0.055785127 0.07352677 -0.09011967 -0.0799315 0.0435779 -0.025800891 -0.009437657
0.06559359 0.011191951 0.010162234 -0.029573252 0.008756295 0.04217343 0.052064054 -0.07788523
0.048104744 -0.013190221 -0.02971846 -0.057295915 -0.019344667 0.057778653 -0.056689568 -0.015068184
0.029078884 0.054993495 0.001555509 -0.03818188 -0.05532077 -0.02828194 -0.08561962 -0.02746883
0.0014078823 -0.0013338857 -0.03612731 -0.05266073 -0.08770299 0.06596874 0.0010329683 -0.067684785
-0.01313329 0.019608198 0.016322112 0.034126796 0.12058563 0.079226665 -0.028592037 0.013168847
0.058783934 -0.04877687 -0.091641165 -0.028480427 -0.05706363 -0.06942889 0.04115462 -0.10046141
-0.096183404 0.07912026 -0.03129058 0.008062572 -0.046747357 -0.067375906 -0.06467392 0.0011164879
-0.0035015175 -0.051879883 -0.00543673 -0.083240494 -0.028112717 0.03136646 0.014199672 0.02768323
-0.041800752 0.11114441 -0.026935335 -0.023125384 -0.030594774 0.035771564 -0.043480832 -0.04818584
0.053002164 -0.028850231 -0.016199226 -0.01942995 -0.10171075 -0.104730606 -0.06377247 0.029982194
0.047789883 -0.04915422 0.03937273 -0.014474696 0.107813 0.022171132 -0.0066493507 -0.029488547
0.025958693 -0.013216997 -0.047821987 -0.0935591 0.036628086 0.095385656 0.06121582 -0.02957989
0.009891701 -0.020440342 0.052945193 -0.042808592 0.037481368 0.039246198 -0.017827606 0.07482716
-0.06784989 -0.06220834 0.040751673 0.034147415 0.026505299 -0.08613737 0.009677585 -0.046444662
-0.033712942 0.0070040394 -0.028042397 0.061273172 -0.10520212 -0.09972937 -0.075807616 0.026348526
00000000: 80d2 a5bd 6cfe 1b3d d557 d3bd 9406 cbbd
00000010: 11b0 cdbd 1bfd 7dbb 4358 603c 91bb fd39
00000020: 7187 cb3d 74b0 cebc f708 c63d fceb 263c
00000030: a8d4 bcbd 1d0e 6bbc 01b8 eabd 6254 c8bc
00000040: c90a 0bbd 8bfd 393d 3a9a 67bd b16d 113d
00000050: 7af5 863c 6e49 ad3d 4320 783d 6d03 a73d
00000060: ec84 e33d af1e fb3d e36a bdbc c12b 253d
00000070: c6d4 0bbd ff6b bebc 5d7e c7bd c611 edbd
00000080: 1785 8c3d 87dd 9f3d 94c4 90bc 09e1 163d
00000090: dd17 a4bc 84b3 cbbd a19f 313c 37c7 8abd
000000a0: 6160 773c 2628 febc 7fb9 10bd b8c4 af3c
000000b0: cf95 9e3c 5a8f 4b3d eec5 403d ad9d d1bd
000000c0: b187 94bd 28ea 92bd 53bc 3f3c d0be 023d
000000d0: 2aa3 a93d 048d 1c3a 6055 a33d cc9d 673d
000000e0: 07f4 5dbc 4b9b 533d 5db5 11bd bb6b d7bd
000000f0: 4a6f 233d 3f16 943d f4b7 313d c7af 923d
00000100: b0f1 6e3d 3ef5 e93d d2a9 91bb 6039 c03c
00000110: e6d8 c3bd a72f 8cbd 8770 2ebb b150 46bd
00000120: 3e36 973d f63e ff3c 7aa8 433a fd51 993d
00000130: 69b2 873c 54d7 f9bc a8c3 e13c 387e ddbc
00000140: e06d 84bd a0d1 4b3d 230c 6dbd 0c66 373d
00000150: d681 c1bc a72a 9bbd 1b78 9e3c 9456 b2bc
00000160: bef6 883a 28e4 0b3d 5382 c3bd 43ef a2bd
00000170: ff32 1a3d 2164 58bd 1b98 bbbd 5567 e63c
00000180: 8f74 683a a5b2 8f3d 0420 463d 5413 83bd
00000190: 97bf e6bd 31a7 133c eb2d 3c3d 792d 82bd
000001a0: c4c6 36bd 5b4a 3ebd 810d f1bb 767c afbd
000001b0: f8f2 933b 2c9f 213d bfbb a03c 080e c3bd
000001c0: db2c 653b 1d3c 903d 4136 dc3d ecea 8e3d
000001d0: 11aa a7bb 2598 02bd beea b8bd 5f66 8dbc
000001e0: 7f98 ebbd 5169 a2bc 18c2 333d 378a 413d
000001f0: c046 2b3d 1a62 5f3d dd33 63bd 37de a73d
00000200: 7681 86bb f27e 64bd 3495 963d a990 b8bd
00000210: 20b3 a3bd bd7e 323d 645c d3bc 67a0 1abc
00000220: ef55 863d 725e 373c 807f 263c 9b43 f2bc
00000230: 9076 0f3c 0cbe 2c3d 1e41 553d 4b82 9fbd
00000240: 7b09 453d cc1b 58bc 2174 f3bc 1faf 6abd
00000250: b578 9ebc 4fa9 6c3d 5233 68bd 8be0 76bc
00000260: d736 ee3c dc40 613d 39e2 cb3a 9a64 1cbd
00000270: 0898 62bd 87af e7bc 5759 afbd 5006 e1bc
00000280: b188 b83a c7d5 aeba 3bfa 13bd c7b2 57bd
00000290: a09d b3bd 9e1a 873d aa64 873a 529e 8abd
000002a0: 032d 57bc 5fa1 a03c f3b5 853c 8ac8 0b3d
000002b0: 99f5 f63d 9741 a23d d939 eabc 26c2 573c
000002c0: 6cc7 703d 41ca 47bd 5dae bbbd c94f e9bc
000002d0: 8ebb 69bd bc30 8ebd bf91 283d b6be cdbd
000002e0: cefb c4bd ce09 a23d 8d2a 00bd e118 043c
000002f0: 287a 3fbd 61fc 89bd c373 84bd 1e57 923a
00000300: b779 65bb 0080 54bd 9926 b2bb fe79 aabd
00000310: a44c e6bc 1e7a 003d bea5 683c f1c7 e23c
00000320: 4437 2bbd ae9f e33d 7ea7 dcbc 7271 bdbc
00000330: e4a1 fabc 3485 123d f518 32bd 845e 45bd
00000340: cc18 593d 5257 ecbc 3db4 84bc 8f2b 9fbc
00000350: ba4d d0bd 007d d6bd 249b 82bd 389d f53c
00000360: 53bf 433d ef55 49bd 4d45 213d 4627 6dbc
00000370: 10cd dc3d 3ca0 b53c cce2 d9bb f791 f1bc
00000380: 53a7 d43c 1a8c 58bc fde0 43bd ea9b bfbd
00000390: 5507 163d 8e59 c33d 71bd 7a3d 8751 f2bc
000003a0: cd10 223c 8172 a7bc 0fdd 583d 1058 2fbd
000003b0: 1086 193d 9fc0 203d 330b 92bc fb3e 993d
000003c0: e2f4 8abd 2cce 7ebd 3aeb 263d 29de 0b3d
000003d0: a421 d93c ca68 b0bd bc8e 1e3c c23c 3ebd
000003e0: 9516 0abd 2482 e53b 2bb9 e5bc 94f9 7a3d
000003f0: 3674 d7bd e93e ccbd 0641 9bbd ddd8 d73c
